mnist_model.pt (torch, 330167 bytes, 8 tensors)

conv1.weight f4 [8, 1, 3, 3]
00000000: a29d ae3e 8e3c a63e 87fa ebbd 1796 38be
00000010: 758e 8d3e d28b 713e c28b d83d d7de 1c3e
00000020: 4a13 453e ef9d 2f3e 673c 423b 3248 93be
00000030: 1186 733e 39c5 82bc 6b71 4f3b 0c10 6d3e
00000040: 75a2 ee3c 63e7 a9be 8350 5fbd 9890 16be
00000050: 8c7c 60be 8516 25be 9743 023d d095 943e
00000060: 0093 20be edc6 923e 58ee 833e de83 703e
00000070: 61a0 b9be f935 59be 5984 0d3e bfb0 20be
00000080: 6509 87bd f902 b53d 22d2 3ebe 22ee 293e
00000090: c07d e3bd 594b c2be b6b3 153d a61f 16be
000000a0: 08b1 03be 0a6b 79bc 66f2 903e 111b 503c
000000b0: 07e1 a9bc 8411 163e 0fff ea3d 9a39 53be
000000c0: 9e66 5d3d 729c fbbd 975c 693e 8b20 6f3e
000000d0: 7040 ac3e e620 b33d d9b5 76be d25c 1e3e
000000e0: a3db c2be 6b64 f8bd 91f1 55bc ea29 7bbd
000000f0: 5e98 a6be 5a3e 1b3c 8034 54bd 028b bf3d
00000100: d575 dbbd 9acf 883e dec7 ac3e ee3d 133d
00000110: 3469 853d 4bb1 39bd d31b 763e 9ed3 623e
0.3410464 0.32468075 -0.11522394 -0.18026005 0.2764775 0.23588493 0.10573532 0.15319382
0.1924564 0.1715009 0.0029638053 -0.28766018 0.23781611 -0.015963184 0.0031653296 0.23150653
0.0291302 -0.33184347 -0.05452014 -0.14703596 -0.21922511 -0.16121872 0.03180274 0.29020548
-0.15681076 0.28667393 0.2576778 0.23487803 -0.36255172 -0.21211995 0.13820018 -0.15692423
-0.06593589 0.088384576 -0.18634847 0.16594747 -0.11107969 -0.3794811 0.03654834 -0.1466051
-0.12860501 -0.015223274 0.28309935 0.012701766 -0.020737184 0.14655119 0.1147443 -0.20627442
0.05405294 -0.12285699 0.22789226 0.23352258 0.33642912 0.08746509 -0.24092807 0.15465096
-0.38058195 -0.12128528 -0.013058082 -0.06131927 -0.32538122 0.009475315 -0.05180788 0.093526855
-0.10715834 0.26720887 0.33746237 0.035947733 0.065142065 -0.045335095 0.24034052 0.22151038

conv1.bias f4 [8]
00000000: 4100 c2bc b3c3 b8ba c980 e0bb 2a59 843e
00000010: 4702 313e 643f 87be 86a3 bd3e 02fc e8bd
-0.023681762 -0.0014096409 -0.00685129 0.25849277 0.17286025 -0.2641555 0.3703882 -0.11376192

conv2.weight f4 [16, 8, 3, 3]
00000000: f1fc d83d 21d0 e73d a024 4e3e 0f29 573d
00000010: 91f0 b6bd 3555 133e cd92 b3bc 11b0 dd3c
00000020: 64eb 393e 1b84 223c 72d0 f7bd 4537 0d3c
00000030: 34dd d2bd 62fe 4ebe 944d d6bd f14a 14be
00000040: 67aa ddbb 2c25 f2bc f50c 9bbd 4954 713d
00000050: 754f 213d 19c0 393c 97ad 883d 5fd6 a03d
00000060: de34 92bd 0bc6 f33d 551b 843e f570 3a3d
00000070: 3cbc 87bd e732 113d 463e 053c d794 243c
00000080: bd9c b13d 837a d4bd 4e47 823d f0bf fbbc
00000090: 8211 9cbd 39ce e3bc 695b 09bd a494 2f3d
000000a0: ceed 9cbd 4579 eb3d d3e9 c13c dc65 85bd
000000b0: 7858 dc3d 4ee3 443e 558e fd3d 3ff0 ac3d
000000c0: eeb0 f03d 5881 5c3d bd6e 893d cb8d 1a3d
000000d0: e072 493e f486 7a3d 1308 1abe d04c 9dbd
000000e0: 9927 c8bd fc7e 423d 428a 07be fe48 353d
000000f0: 1c48 01be 5552 e7bd 4443 31be a7db 0c3e
00000100: 9092 533d d3c6 d83d 64d0 84bd 2e6d 8abc
00000110: a210 d13b 4588 eb3c 247d 833e 68cc b23d
00000120: 624e 63bd 904f 08bd eef8 283d ee2f 4cbd
00000130: 8b4a f4bc fe9a d03d ecc8 193d 33eb 95be
00000140: 25c8 b8bd 5c21 afbd 2009 c83c 0033 bd3c
00000150: cfff 25bd 2264 01be 4df5 89be cb67 f93d
00000160: b3a8 80be 8368 a6be 9aca b8bd c55c 21be
00000170: 6e37 223e e530 80be b956 66be eb0f 053e
00000180: ab5c 833d c655 42be ad25 2abe 7b21 97bd
00000190: 8ed1 ffbc d69e 153d 2261 2d3d c68e 7b3c
000001a0: 6044 d03d b2ff 0d3b e2ce 913d 6544 ba3b
000001b0: 9526 4ebd 1f41 b93d 1094 4dbd e31b c63d
000001c0: 5031 093e a1e5 ad3d 9d2f 403e 8b18 94bd
000001d0: 00f9 c63d 630e a83d 8428 253d 2f88 e53d
000001e0: 23a4 7ebd fb56 30be 3069 893d 22e4 8abc
000001f0: 2d6d c8bc 692c d8bd ed95 aa3d 6a72 1e3e
00000200: 4d10 103e 26db 1d3e 1c6b 6d3e ccc2 a83c
00000210: 5eb0 763d 8e07 373e b06b 213d f894 b6b9
00000220: 8826 d43c 7544 753c 1819 c23d ebb9 7bbe
00000230: 144c 70bb 1b0d b83b 304f a1be 834a d8bd
00000240: 3692 cfbd 304f e53d 4a7d 2bbd fa8a 5cbd
00000250: 9217 243e c9f2 a1bd 3a6d 16be 1f19 bf3d
00000260: 67b8 7e3d 8fa5 55be 1925 91bd eafd 873e
00000270: 796b 5ebc 2a84 933c 27b5 4b3e f928 ac3c
00000280: 23b0 66be f7b9 a83d 38a5 13bd 483b 55bd
00000290: 6dce 95bd 5794 c93c 0f02 bd3d 5452 a3bc
000002a0: 51a7 05be 8b63 e53b c526 203e 4c17 34bd
000002b0: acce 59be bf9e 463e 8cfc fb3d b507 6abd
000002c0: 061b d73d da6d 963d f0fa 8ebc 36e3 c73c
000002d0: e2b6 5eb8 170b b2be fa30 14bd 462a 2d3e
000002e0: d3ae cebd 1a65 a1ba 1103 f53d fd46 89be
000002f0: d387 babd 25f2 14be fee7 e0bc 9046 1d3e
00000300: 19cf f5bd 28ae db3c efa1 0a3e d2f5 cebe
00000310: 15c0 16be cf4a c63d 5d71 ca3a 9869 0abe
00000320: 93d5 7dbd faf8 11bc 724a 0b3d 16c8 01be
00000330: f2e6 e73b fc20 4b3c 2323 b6bc 5369 7a3c
00000340: 338e b13d 89b0 9dbc 5efd 4e3d f288 253e
00000350: 8c65 06bc 8b01 1abe f814 7dbb 555c 133e
00000360: 999f 493e 0e73 0d3d 59d4 493d d706 d33d
00000370: 7be0 ab3d 9a1a ee3d 64e2 913c a8e6 0b3e
00000380: b9e9 0b3c 1f17 a93c 98e4 d93d 7cf9 8a3d
00000390: 36fb d3bd 7f1f 50bd e821 2fbc cd75 54be
000003a0: 658f 493d a6c5 043e dcc1 d5bd 4128 77bc
000003b0: fa82 923d b7ae 9ebd 1c39 fb3d b7fc 963d
000003c0: efa7 353d 8645 f43d 51e7 60bd bb18 eebc
000003d0: 1d51 a7bc 7aa5 bcbd 97a2 f83b 0395 d4bd
000003e0: 8cdf 12be b622 a2bc 8f34 09be 2b5c 7c3c
000003f0: ceaa a9bd 4c61 15be 6c0e 203d 302f 43bd
0.1059512 0.11318994 0.20131159 0.05252939 -0.08932603 0.14387973 -0.021920586 0.027061494
0.181562 0.009919192 -0.12100305 0.008619134 -0.102960974 -0.20214227 -0.104640156 -0.14481713
-0.0067646983 -0.02955874 -0.07570831 0.05891827 0.039382417 0.011337304 0.06673735 0.07853388
-0.0713899 0.11903008 0.25802103 0.04551788 -0.066277 0.035448935 0.008132523 0.010045252
0.086724736 -0.1037493 0.063612565 -0.030731171 -0.07620527 -0.027808296 -0.03353444 0.042866364
-0.07662545 0.1149774 0.023671066 -0.06513569 0.107590616 0.19227335 0.12380663 0.08444261
0.11752497 0.05383429 0.06710575 0.03773288 0.19672728 0.061163858 -0.15042143 -0.076806664
-0.09773178 0.047484383 -0.13236335 0.044259064 -0.12625164 -0.112950005 -0.17310816 0.13755666
0.051653445 0.10584798 -0.0648506 -0.016897764 0.0063801566 0.028751502 0.25681412 0.08730394
-0.055494674 -0.033279 0.041253023 -0.049850397 -0.029820701 0.101858124 0.03754513 -0.29281005
-0.090225495 -0.08551285 0.024418414 0.023095608 -0.04052716 -0.12635854 -0.26944962 0.12178
-0.25128707 -0.3250161 -0.09023018 -0.15758045 0.15841457 -0.25037304 -0.2249402 0.12994353
0.064141594 -0.18978032 -0.16615935 -0.07379433 -0.031227853 0.03652843 0.04232896 0.015353864
0.101692915 0.00216673 0.07119538 0.005684423 -0.050329763 0.09045624 -0.05019003 0.09673288
0.13397717 0.08491064 0.18768163 -0.07231244 0.09715462 0.08205869 0.04032184 0.112076156
-0.06216825 -0.1722068 0.06709516 -0.016954485 -0.024466122 -0.105553456 0.08329377 0.15473333
0.14068718 0.1541563 0.2318539 0.020600699 0.06022679 0.17873976 0.03940934 -0.00034824735
0.02589728 0.014969935 0.094774425 -0.24582641 -0.003666644 0.0056167967 -0.31505728 -0.10561087
-0.101353094 0.111967444 -0.04186753 -0.053843476 0.16024616 -0.07907636 -0.14690104 0.09330963
0.06218758 -0.20863937 -0.07087154 0.2656091 -0.013575428 0.018007357 0.19893323 0.021015631
-0.22528128 0.08238595 -0.036046237 -0.052058488 -0.07314763 0.024606867 0.09228908 -0.019936718
-0.13052107 0.007000392 0.1563979 -0.04396753 -0.21270245 0.19396494 0.12304029 -0.057136256
0.10503201 0.07345171 -0.01745364 0.024400335 -5.3099247e-05 -0.34774086 -0.03617952 0.16910657
-0.10091939 -0.0012313456 0.119634755 -0.26811972 -0.09107938 -0.14545496 -0.027454372 0.15358949
-0.12002391 0.026816443 0.13538335 -0.4042192 -0.14721711 0.09682237 0.0015445162 -0.13516843
-0.06197126 -0.008909458 0.034006543 -0.12673983 0.0070770914 0.012398001 -0.022233551 0.0152839
0.086697005 -0.019249218 0.0505346 0.16165522 -0.008202922 -0.15039651 -0.0038617235 0.1439069
0.19689788 0.034533553 0.049274776 0.10304039 0.083924256 0.116261676 0.017808147 0.13662207
0.008539611 0.020640908 0.10639304 0.067858666 -0.10350649 -0.050811287 -0.010689236 -0.20748062
0.049209017 0.12966022 -0.10437366 -0.015085281 0.07153888 -0.07748168 0.12266752 0.0737242
0.044349607 0.11927323 -0.0549081 -0.029064527 -0.02042442 -0.0921125 0.0075877416 -0.10379984
-0.14343089 -0.019791942 -0.13398956 0.015402834 -0.082845315 -0.14587897 0.039076254 -0.047652423

conv2.bias f4 [16]
00000000: 2c31 5bbb a267 213e dabd 303d b661 4bbd
00000010: fb2c 3e3e 2fe4 0abe 44e1 5cbd d80f 843c
00000020: 8043 bd3c b394 02be b37d c03d 9004 223e
00000030: c31b d53d a553 74bd 5599 82bd 5668 20be
-0.0033446057 0.15762189 0.043149807 -0.04965373 0.18571846 -0.13563608 -0.053925768 0.016120836
0.023103476 -0.12752037 0.09398975 0.15822053 0.10405686 -0.059650082 -0.06376902 -0.15664801

fc1.weight f4 [200, 400]
00000000: 40b1 46bd aa71 003d faef f7bc 405f dcbc
00000010: a717 d3bc 88f1 183c af84 d9bc e63f 06bd
00000020: 352a 143d 09f3 3bbd 316a 063d 72da c63c
00000030: 1b01 64bd dac9 d7bb 790e a73b 4d11 293c
00000040: e8e4 fa3c b9b0 d8bc e731 44bd db63 44bd
00000050: 90ca 013c 719c ff3c 9b72 1ebd 7770 9dbc
00000060: 318c 04bd 1a81 3bbd 9a74 8f3c 2585 203d
00000070: 408e de3b 37fe 05bd 78c0 2a3d 1b7f 2e3d
00000080: f366 8cbc 7345 ab3b 9d12 c63c 1396 ea3c
00000090: 4036 983b aa41 4a3d 8bd7 423d d746 1bbd
000000a0: 4a8a 09bd 8a01 953c 13fa 58bc 3ad6 b6bc
000000b0: a80f 2e3d ad84 76bc 7301 c03b 0ff0 383d
000000c0: 47d3 323d a0c9 223c 2985 e0bc 1b9d a1bc
000000d0: 18cd 643c 86c5 8d3c 8357 cebc ca81 f9bb
000000e0: a2e8 51bd af85 203d 067b d9bc a7a5 2a3d
000000f0: 7e9e 34bd af24 9f3c 98f9 f13c 80dc 85bc
00000100: 0250 32bd 2669 3fbd 7821 61bd fbc7 2abc
00000110: ff9c 06bc c93b b7bc 6851 26bd c075 31bd
00000120: 72fc 313d 12ee 6b3c aed6 0b3d 4ea3 323d
00000130: 9cec 38bd 7b01 82bc e6ff 49bd 3ae9 333d
00000140: ca4a 1e3d 648a 1dbc dc72 c53c 4083 d8bc
00000150: 20fa 1fbd f223 2d3d 0c2f 183d 5a67 f83c
00000160: 1b60 48bd a7a4 d2bc 70df f13c 7e5e 26bd
00000170: d69c 203d 3a4a 1e3b 8af5 58bd 1494 b1bc
00000180: a2c3 3ebd c558 923c 661a 3cbd dbf4 cb3c
00000190: c97d c2bc 7248 8d3c 5af0 5cbd 16ec bf3c
000001a0: 0714 4cbd 6353 dc3c 94a8 a03a cdbe 173c
000001b0: 989c c3bc 3b47 a3bb 63bf 3abd 8d5e b93c
000001c0: c5b2 5dbc f88b 33bd 9742 1bbd b092 aa3a
000001d0: 07f9 8e3c ab22 7dbb db28 adbc c79c 973c
000001e0: 0c7d c8bc c6ce 20bd 8376 1ebd 03ef f8bc
000001f0: 2054 22bd 4ab1 203d 108a fabc f7e3 96bc
00000200: 03fb 9fbc 6da3 52bc 8d79 e3bc 3a8b 073c
00000210: fd97 e0bc a7b6 3c3d 735b ef3b ddd1 26bd
00000220: e0fe f63c ca68 c53c bffd 253d cbdc 10bd
00000230: d257 0abd 936b bd3c 08d0 16bd 4ddc 27bd
00000240: cb71 0bbd 2586 0dbd 5a5b e7bb 73c4 cd3b
00000250: ed7f 35bc 1a94 7abb dfe7 24bd 1d22 c4bc
00000260: f7a6 253d 808f 493d 5021 8f3c 1876 d13c
00000270: 1e30 c23b 9e84 f5bc 243e 92bc c86e c3bc
00000280: 8975 353b b72c 2b3d e2c9 1bbd 104a 123c
00000290: 4d5e 4fbd 6c02 123d 76b6 01bd 8df6 f1bc
000002a0: ea4d 863c 9f50 38bc 0d84 563c d682 28bd
000002b0: 0925 3d3c ebdf 22bd c6ac dbbc 69b7 713a
000002c0: 095d 513c 4971 08bd 4824 d9bc 271f 473c
000002d0: 87bd ed3c b563 a53b f586 2abd 03b8 be3c
000002e0: 3d2c 53bd 5668 ac3b c5cb 033d 8f6b 14bd
000002f0: a8d3 f43c ff52 24bd 38c3 37bc 53d1 a4bc
00000300: b862 dabc 2436 49bd 9828 38b9 3ecd 6d3c
00000310: 07ea 6abc 1fe0 ae3b 8906 d6bc 4d5c 103d
00000320: 1aae 953c 8e78 19bd c55e 03bd 311e 5cb8
00000330: b960 31bd 37b7 193d 2219 9cbc 1672 ea3a
00000340: cd9e 343d 49a3 a43c dd53 883c 0dd3 efbc
00000350: f385 ef3c 7578 773c b996 323d 18b8 0b3d
00000360: a019 c3bc 2526 b13a 9346 913c 422a 25bc
00000370: f6b4 f23c cadb 863c ebcd 3abc 567d 13bc
00000380: 4f39 2bbc efbe c33c 5637 fbbc c72c 0bbd
00000390: 6c2a 8abb 3dd3 d4bb 604a 0e3d 7df6 45bd
000003a0: a9b9 5b3c c815 0fbd 769f 13bd ed10 053d
000003b0: cdf4 4dbd 5d67 733c ca66 28bd 1768 e13c
000003c0: 0a87 27bd 90ef 86bc 766b 20bd aae5 053d
000003d0: 7566 503c 1d66 d9bc 0cb7 14bc 2c83 57bd
000003e0: f63d 41bd 22cb 8cbc f714 0e3c ea00 23bd
000003f0: 9a72 283c 8e1c 3cbd 8d3d df3b b3af be3c
-0.048508883 0.0313584 -0.030265797 -0.026900887 -0.025768114 0.009334929 -0.026552526 -0.032775782
0.036173064 -0.045886073 0.032816116 0.024274085 -0.055665117 -0.006585342 0.005098161 0.010319066
0.03062673 -0.026451455 -0.047899153 -0.047946792 0.00792183 0.031202527 -0.038683515 -0.019218666
-0.03236026 -0.045777418 0.017511655 0.039189477 0.00679186 -0.03271314 0.04168746 0.042601686
-0.017138934 0.005226785 0.024178797 0.028636014 0.004645139 0.04937903 0.04756884 -0.037909355
-0.03357915 0.01818921 -0.013243216 -0.022318948 0.0424954 -0.015046281 0.0058595478 0.045150813
0.04365852 0.009935766 -0.027407246 -0.019728234 0.013964914 0.0173061 -0.025188213 -0.007614349
-0.051247247 0.03918999 -0.02654792 0.041661885 -0.044096462 0.019426672 0.02953796 -0.016340494
-0.043533333 -0.046731137 -0.05496356 -0.010423656 -0.008216142 -0.022367375 -0.04060498 -0.043325186
0.04345364 0.014400022 0.03414028 0.04361277 -0.045147523 -0.015869847 -0.04931631 0.043923594
0.038645543 -0.009615514 0.02410262 -0.026429772 -0.039056897 0.04227061 0.037154242 0.03032272
-0.04891978 -0.025713278 0.029525489 -0.04061746 0.03921207 0.002415313 -0.05296854 -0.021677054
-0.04657329 0.017864594 -0.045923613 0.02489703 -0.02374162 0.017246459 -0.053940155 0.023428004
-0.049823787 0.02689523 0.0012257271 0.009261799 -0.02387838 -0.0049828566 -0.045592677 0.022628093
-0.0135313915 -0.043834656 -0.037905302 0.0013013687 0.01745273 -0.00386254 -0.021137645 0.018507374
-0.02447369 -0.039259695 -0.03868724 -0.030387407 -0.03963101 0.039231576 -0.030583411 -0.018419249
-0.019528871 -0.012856347 -0.02776792 0.00827294 -0.027416224 0.04607263 0.007304603 -0.040727485
0.03015083 0.024097819 0.040525194 -0.035366815 -0.03377516 0.023122584 -0.036819488 -0.04098158
-0.03404407 -0.03455176 -0.0070604505 0.006279522 -0.011077863 -0.0038235248 -0.040260192 -0.023942048
0.040442433 0.049209118 0.01747194 0.025569007 0.005926146 -0.029970463 -0.017851897 -0.023856536
0.0027688465 0.04179069 -0.038034327 0.008928791 -0.05062704 0.03564684 -0.03166815 -0.02953651
0.016394574 -0.01124969 0.013093007 -0.0411404 0.011544474 -0.039764326 -0.026815783 0.00092207507
0.012778529 -0.033311162 -0.026506558 0.012153423 0.029021038 0.0050472864 -0.04163261 0.023281103
-0.05155586 0.0052614613 0.03217675 -0.03623539 0.029886082 -0.040118214 -0.011215977 -0.020119345
-0.0266584 -0.0491239 -0.0001756273 0.014514266 -0.014338023 0.005336776 -0.026126163 0.035244275
0.018271495 -0.037468486 -0.0320728 -5.2480205e-05 -0.043305133 0.037528243 -0.019054953 0.0017886783
0.044096757 0.020097392 0.016641552 -0.029275442 0.029238677 0.015104403 0.04360077 0.034111112
-0.02381593 0.0013515396 0.017733848 -0.010080876 0.029627305 0.016462225 -0.011401634 -0.00900205
-0.010450675 0.023894755 -0.030666035 -0.03397825 -0.004216483 -0.006494908 0.0347389 -0.048330773
0.013410964 -0.03493288 -0.036040746 0.032486845 -0.05028229 0.014856187 -0.041113652 0.027515454
-0.040900268 -0.016471654 -0.039164983 0.032689728 0.01271974 -0.02653795 -0.009076845 -0.05261533
-0.04717823 -0.017186705 0.008671991 -0.039795794 0.010281229 -0.04592567 0.0068127573 0.02327714

fc1.bias f4 [200]
00000000: 20c5 21bd 1b01 03bd 0399 a43d a2d2 403c
00000010: 1676 adbc 78a8 283d 9c7d 853c f923 063d
00000020: d18f bcbc 7947 74bc a97e 57bd 53d4 483d
00000030: 31eb 72bd bb4d af3c fb12 dcbc c810 7bbd
00000040: aeec 64bd 74ab 38bd daf6 223d f9fc 8ebc
00000050: 7350 7cbc 5c5a aa3c eae0 3cbd 3f47 2abb
00000060: 9c3e 06bc 7a2b 9ebb fe61 9c3d 33e2 503c
00000070: 6f80 0ebc 17f7 34bd cf9e 41bc 6058 8d3c
00000080: 85c8 40bd bfc0 403d 9eab 86bd a29f febc
00000090: 6ac1 1fbd c31c fbbc 55ee 163d 6417 ed3c
000000a0: 0c0d 56bc 486e 743c 040f 223d 4bf0 f2bc
000000b0: 5543 0ebd c04b 923c 9f09 be3d 3d2b 503a
000000c0: 86a8 9b3c 868f f23b 8187 43bd 213e 7fbc
000000d0: ec0e 41bd 3d65 dfbd 5a29 573d 2a39 2c3d
000000e0: 1607 9cbd f030 2c3d 3f37 903d b470 5fbd
000000f0: 188b 3ebd 9a2b 0cbd 8e90 263c 7c27 6cba
00000100: cada 23bd 737d 98bc 92bc cfbc 12f8 573b
00000110: 4d9f 933c c47c d9bc 8f76 e5bd d810 143d
00000120: dd6e a83d 3b92 e4bc 2d74 88bd e9b8 3abb
00000130: 1d49 1e3d bec0 293d 6299 06bd 28f1 febc
00000140: f3a5 26bd a889 38bd 3caf 85bd a554 abbc
00000150: 6e1f 3d3c 5d94 ac3b c3f2 103d 182e 38bc
00000160: 8957 183c e01e 643d c4d7 03bd f91d 94bd
00000170: db2a 74bd 79cd 943d d304 28bc 02a7 8abd
00000180: a810 a33c fe55 923d a8a0 0e3c 9c67 4abd
00000190: 43c4 94bd c94c 68b8 3641 223d d0f8 c13d
000001a0: fc0f ee3c 6c00 97bd b12e 9b3b d334 2ebc
000001b0: 1967 b0bd f063 b4bc c7e5 dcbd 5f7e b9bd
000001c0: 9a0b 263d 41c6 02bb 5ec0 493c b53a 5cbd
000001d0: d1d8 68bd 3eee e5bc 9cf9 c4bb 2d16 9c3c
000001e0: ebe2 8ebc e4d8 b8bd 883a 3cbd fbef 2ebd
000001f0: 5070 17bd ff66 9d3c 4f45 253d 4aff 1ebd
00000200: fe51 a93d b6cd ca3c 5062 143b a9d3 433b
00000210: 6956 08bd a479 24bd d738 c7bc bf46 e53c
00000220: bedc 46bd 16b2 9fbb 586f 6e3c e0bc f9bc
00000230: 1f5c 9dbc 1a70 15bd 419b 1d3d 98b2 b0bc
00000240: ef59 30bd eede 05bb 46ef 52bc 1b1a 39bd
00000250: 115c 193c 4615 f33c 85a3 64bd 47ad 123d
00000260: c40e 753b 35d7 11bd cf30 963c cbc1 973d
00000270: 1f3d 01bd c022 3a3d bae3 533c 5bd5 23bd
00000280: 2081 89bc f179 ad3c bc04 ac3d fa0f d9bc
00000290: c36a 14bd b333 4bbd 1648 583c 6224 0d3b
000002a0: 8ccb 343c 2352 713c 7c77 b6bb 9d09 7fbd
000002b0: 8604 99bc 7506 00bb cd1b be3b bed7 593c
000002c0: 0382 0abd 3fbc 073d 8904 fd3b c7ec 553d
000002d0: b2ea cc3d 632c 083b 9aeb 4c3d 6b85 9b3c
000002e0: 7df3 e23c 3439 ba3b 7823 97bc bde7 8b3d
000002f0: 8bc4 24bd ec0d bdbc 74ec eb3b 9a54 bb3c
00000300: 37ab 5c3c bf95 e8bc 6ce9 253d 2d90 d0bc
00000310: 238c 6ebc 03e9 de3c 5d17 a8bc 9958 23bd
-0.039494634 -0.031983476 0.08036997 0.011768969 -0.021174472 0.04117629 0.016295247 0.03274915
-0.023017796 -0.0149096185 -0.052611027 0.049030613 -0.059306327 0.02139937 -0.02686452 -0.0612953
-0.055889778 -0.045085385 0.039786197 -0.017454611 -0.01540004 0.02079504 -0.046112932 -0.0025982407
-0.008193638 -0.00482696 0.07635878 0.012749243 -0.008697613 -0.044180956 -0.011817648 0.017254055
-0.04706623 0.047058817 -0.06575702 -0.031081978 -0.039002813 -0.030653363 0.036848385 0.028941818
-0.013064634 0.014918871 0.0395651 -0.029655596 -0.03473218 0.017858386 0.09279179 0.00079410133
0.019001257 0.0074023632 -0.04773665 -0.0155787775 -0.04713337 -0.109079815 0.05252967 0.042046703
-0.07618539 0.042038858 0.07041787 -0.05455084 -0.04651937 -0.03422127 0.0101663 -0.0009008569
-0.040003575 -0.018614506 -0.025358472 0.0032954258 0.018020296 -0.02654875 -0.11204254 0.036148876
0.082242705 -0.02790176 -0.06662784 -0.0028491563 0.038643945 0.04144358 -0.03286112 -0.031120852
-0.040685605 -0.045053154 -0.06527564 -0.020914385 0.011543138 0.0052667097 0.035387766 -0.011241458
0.009298214 0.055693507 -0.032188192 -0.07232279 -0.059611183 0.07265753 -0.010255056 -0.067701355
0.019905403 0.07145308 0.008705296 -0.049415216 -0.072639965 -5.5384622e-05 0.03961297 0.09471285
0.029060356 -0.07373127 0.0047357907 -0.010632711 -0.08613414 -0.02202031 -0.10786014 -0.090573065
0.040538408 -0.0019954594 0.01231393 -0.053766925 -0.056847397 -0.028067704 -0.006011201 0.019053543
-0.017442187 -0.090257436 -0.045954257 -0.042709332 -0.036972344 0.019214151 0.0403493 -0.03881768
0.08267592 0.024756294 0.0022641607 0.0029880798 -0.033285532 -0.040155068 -0.024319096 0.027987836
-0.04855036 -0.0048735244 0.014552914 -0.03048557 -0.019208966 -0.03648386 0.03847814 -0.021569535
-0.043054517 -0.0020427066 -0.01287443 -0.04519091 0.009360329 0.02967323 -0.055820007 0.03580978
0.0037392834 -0.035605628 0.01833382 0.0741001 -0.03155243 0.045443296 0.012932712 -0.039998394
-0.016785204 0.02117631 0.083993405 -0.026496876 -0.03623463 -0.04960985 0.01320078 0.0021536578
0.0110348575 0.014729056 -0.005568443 -0.062265027 -0.018678915 -0.0019535099 0.005801654 0.013296066
-0.033815395 0.03313851 0.007721488 0.05222776 0.10005702 0.002077841 0.050029375 0.018984517
0.027703995 0.0056830887 -0.01844953 0.0683131 -0.0402265 -0.023077928 0.0071998183 0.02286749
0.013468555 -0.028391717 0.04050581 -0.025459373 -0.014559778 0.027210718 -0.020518953 -0.039879415

fc2.weight f4 [2, 200]
00000000: b1b6 4f3c 249b 8bbc de64 e23c 3a4b 1abd
00000010: 16a7 46b9 99cb 96bd 39f0 18bd fb4d c43d
00000020: 4f42 dabc f6c0 78bd e328 29bc 9c08 e6bd
00000030: 6886 003d 6b67 be3c 39e9 1dbe 51ae 713c
00000040: 5491 42be 908d 2dbe 4052 2a3d 7ca5 543d
00000050: 9472 833c cecf 653d 3a47 f63b b491 963c
00000060: b29c 2dbe e7f1 4c3d 8bc5 813c 82e4 183d
00000070: 355b 2f3d af5b 74bc 3999 03bd 1562 533d
00000080: ad52 34bd c312 5dbe f937 25bd 7d9a 1dbd
00000090: 6f55 2a3d 77cc 8cbc 1c09 3c3c 44da 04be
000000a0: 13b2 8dbd e3b9 2abb 4fb3 053d 033b 2c3d
000000b0: c7a2 d5bd 8d6e 42bd 9b3a 543d 0ed2 bdbb
000000c0: 2f99 c53a 033f 18be 767f 0abd c9a5 2e3d
000000d0: abfd 5cbd c149 bbbd fcb5 b8bd 7910 9bb9
000000e0: a851 98be 0036 2c3c 0707 cd3c e72b 693d
000000f0: 0a81 e73c c97a 893c 33ad 0bbc 164d 52bd
00000100: 097a 7c3d 7c01 143b edcf 6abd 1ab6 4a3c
00000110: 94b1 b8bc 1ff6 1e3d 9b96 12be b0dc e2bc
00000120: 57a8 563d cc6b 8fbc c88d 8d3c 4558 48bd
00000130: b1ad a1bd 8648 c2bd 7b87 b33c 48a1 76bd
00000140: 6134 e2bc 5f41 523c 5714 94be 83c2 eebb
00000150: 502c 193c 5314 80bc dbb4 11be 554c bf3c
00000160: 63d3 e7ba 8eaf 28be 92a6 1bbc ee87 4fbe
00000170: bf80 9abc 71da bcbd 5aba 613d 8010 9dbd
00000180: f8c7 c9bc 0ec4 45be 35d7 0ebc 7473 ff3b
00000190: 0466 fdbb bd06 063d 94db b7bc e01d a43c
000001a0: 11c8 13bc 9e4c bdbc d663 c33c 4e00 84bc
000001b0: 23de 8abe 7540 74bd 1c87 40be 7d77 46be
000001c0: ad1b 0b3c a1b1 8b3c 018a 3fbd 7510 42bd
000001d0: 478c fd3c d1d1 ffbc f3b2 cdbc 5f1d 87bd
000001e0: f098 84bd 500f 40be 26f4 a0bc d2f9 a5bb
000001f0: f2e5 453d 0827 56bd aaa0 78bd 9a0b a3bd
00000200: eb5a 1e3d cc4d fcbd 0060 c73a 464b 7dbe
00000210: 0cf3 85bb 60c1 74bd 28c1 0e3d 127b 74bc
00000220: 9bd6 663d 8ce3 073d 93b8 64bd 2303 5d3d
00000230: 3225 153d db51 4bbd 176f 493d 3883 c7bd
00000240: ea7a 1bbd d856 873c 821a 423c 7272 2b3d
00000250: 0126 49bc 0c20 59bd 6bd5 babd 0c82 56bd
00000260: 92fb 8abb 9a51 e23b 130d 923c 3ef4 b5bc
00000270: 4f28 61bd 9819 61bd c5c6 acbb 1b4e 2a3d
00000280: 4c10 1bbd 9ec5 e83c 5597 8e3d 3c9e a7bc
00000290: 1dfc 673d ffb8 553d 8b39 32be f7b4 21be
000002a0: cec6 503d d1b6 6b3c a932 123c 0ea6 d4ba
000002b0: 3637 4a3d 401d 82bd a081 34bd 04cd 94bd
000002c0: bcad 1f3b b590 4dbe 9df4 fbbc 800e 1dbe
000002d0: 2148 743d 31d1 cdbc 9a11 82be 0c2f 483c
000002e0: 23cf 433d 970a 99bc 3866 6cbc 8fca cf3c
000002f0: 865e c8bc 1319 95bb b87c ea3b 1801 29bc
00000300: 7d06 b6bc 18e2 d13c 52c4 8d3c dddf 6bbe
00000310: 763f 84bb f094 d4bd da9e 72bd dcb7 213d
00000320: e8cd 55bd e9b2 e5bc 8637 643c 030d 5d3d
00000330: 1891 54bc d15d f93a b0d1 dabc e076 70bd
00000340: 1f34 cfbc 1e6f 8b3b a9c5 c13c 2740 d73d
00000350: 8003 90bc 2ff4 043d cf7e 5b3e d51c dfbc
00000360: b7e0 b83d b8fe 393e 3aee 303d 3f1d 193d
00000370: 6f3b d03c f532 543d 033f ffbb a790 33bb
00000380: 972f 5e3e 882c 3f3d 18f8 61bd ec6c f83c
00000390: 47ac f9bc 7c41 ea3b 7a5f b6bc c1d0 60bd
000003a0: 516b 2b3d e939 5e3e ae5f 293c 7f54 913d
000003b0: 79ad 733d 9ae0 14bd 7be9 2bbd bd44 853d
000003c0: 2666 373d 313a 1cbb d966 de3c 5dc1 ddba
000003d0: c11d 93bc 0420 54bd d926 39bd a11c 54bc
000003e0: 8669 4b3d 3eff 513e 18fd adbc 93b6 5bbd
000003f0: 11b4 dfbc de3a fb3d dd25 713d 0e37 4f3d
0.012677834 -0.01704175 0.027635988 -0.037669398 -0.00018944996 -0.07363052 -0.03733847 0.09585186
-0.026642947 -0.060730897 -0.01032469 -0.11232111 0.03137818 0.023242673 -0.15420999 0.014751033
-0.19000751 -0.16948533 0.041582346 0.05191563 0.016045846 0.05610638 0.007515815 0.018380024
-0.16954306 0.050035384 0.015841266 0.037327297 0.04281159 -0.014914437 -0.032128546 0.05160721
-0.04402416 -0.21589188 -0.040336583 -0.03847741 0.041585382 -0.01718734 0.011476781 -0.12973887
-0.069187306 -0.0026050739 0.032641705 0.042048465 -0.10431438 -0.04746871 0.051813703 -0.0057928627
0.001507556 -0.14867787 -0.033812962 0.042638574 -0.053952854 -0.09144927 -0.09019086 -0.00029576177
-0.297498 0.0105109215 0.025027765 0.056926634 0.028259773 0.016782181 -0.008525181 -0.051343046
0.06163982 0.0022583893 -0.0573272 0.012372518 -0.022545613 0.038808938 -0.14315264 -0.027693123
0.052406635 -0.017507456 0.01727952 -0.048912305 -0.07894457 -0.09486489 0.021915188 -0.060212404
-0.027612867 0.0128329685 -0.28921768 -0.007286371 0.009348944 -0.015634691 -0.14229147 0.023351828
-0.00176869 -0.16473219 -0.009500163 -0.20266697 -0.018860219 -0.09221352 0.05510936 -0.07669163
-0.024631485 -0.1931307 -0.008718302 0.0077957455 -0.0077331085 0.03272127 -0.02244357 0.020033777
-0.0090198675 -0.023107823 0.023851316 -0.016113427 -0.27122602 -0.059631784 -0.1880154 -0.19381519
0.008490485 0.017052474 -0.04676247 -0.047378976 0.030950679 -0.031227978 -0.025109744 -0.06597399
-0.06474483 -0.18755841 -0.019647669 -0.0050651813 0.048314996 -0.052283317 -0.060700096 -0.07961197
0.038660925 -0.12319526 0.0015211105 -0.24735746 -0.0040878113 -0.05975473 0.034852177 -0.01492192
0.056357007 0.03317599 -0.055840086 0.05395807 0.036412425 -0.04963861 0.04917821 -0.09741825
-0.037959017 0.016520903 0.01184714 0.04185719 -0.012277127 -0.053009078 -0.091227375 -0.052370116
-0.0042414153 0.0069067003 0.0178285 -0.02221119 -0.054970082 -0.05495605 -0.0052727186 0.041578393
-0.03785734 0.028414544 0.06962458 -0.020461194 0.05663692 0.05217838 -0.17404763 -0.15791689
0.050970845 0.014386849 0.008923211 -0.0016223805 0.04936906 -0.06353235 -0.044068933 -0.07265666
0.0024365028 -0.20074733 -0.03075629 -0.15337563 0.0596391 -0.025124164 -0.25404054 0.012218248
0.047804963 -0.018681807 -0.014428668 0.025365142 -0.024459135 -0.004550108 0.007155981 -0.010315202
-0.02221989 0.025620505 0.017305527 -0.23034616 -0.0040358854 -0.1037997 -0.059233524 0.039481983
-0.05219832 -0.028039413 0.013929253 0.053967487 -0.012974046 0.0019025152 -0.026711315 -0.058707118
-0.025293408 0.0042551896 0.023653822 0.10510283 -0.017579794 0.032459434 0.21435092 -0.027235428
0.09027236 0.18163574 0.04319594 0.037381407 0.025418965 0.05180641 -0.007789494 -0.0027399452
0.21697842 0.046673328 -0.05516824 0.030325375 -0.030477656 0.0071489196 -0.022262324 -0.054886583
0.04185039 0.21701778 0.010337753 0.070961945 0.05949161 -0.03634701 -0.04197071 0.065072514
0.04477515 -0.0023838396 0.027148651 -0.0016918589 -0.017958524 -0.051788345 -0.045203064 -0.012946279
0.049661182 0.20507523 -0.021238849 -0.053640913 -0.027307542 0.122670874 0.058874 0.050589614

fc2.bias f4 [2]
00000000: e89f 483e a017 51be
0.1959225 -0.20419168
